baselines/models/ppo/run4/trained_model/actor_1500.pth (torch, 171103 bytes, 4 tensors)

linear_in.weight f4 [64, 625]
00000000: e6f4 8cbd 24af 2d3d 2d18 383d 9c37 f13d
00000010: 34bd 073d e6a7 533d 414e 133c 9cdc e5bb
00000020: da7d 30bd 0ab2 10bd b6d3 1c3c e9bd 7d3d
00000030: 0436 82bc af00 c43c 3740 3c3d 25ff 23bd
00000040: ea52 95bc d087 743c b8ff abbb 6a97 3e3d
00000050: 625b 533d 56b3 7f3d 82b3 633d fcb6 d53d
00000060: 7076 3c3c 5150 3fbd 1986 2abd 7bf3 ab3d
00000070: 6372 9e3d 3a87 613c 15a0 a93d 2dcd 273d
00000080: db56 7d3d 76be 133d 18e2 763d 1f8f eebb
00000090: 3dbc 08bc ad06 223d debb 9f3b e9ed 1b3d
000000a0: ffa2 8a3d 158c 88bd f2ae f1bc c958 853c
000000b0: a06d 923d 7b1a 923d 4f9b b83c 2b3a ad3d
000000c0: 7410 753d 975a 1b3d d6a0 4bbd 04a1 3fbd
000000d0: 7085 2f3d 157f a63d eba9 5f3d 74a3 dc3a
000000e0: 3e9a c13c 1256 573d 24b8 59bc 0aa4 6dbd
000000f0: 24ad 9e3c dbb3 1a3d 9d5d 31bc c4a7 953c
00000100: 6004 d33d 1605 973d 9f32 b23b 8b1b 84bd
00000110: fff3 c1bc 8fd0 d73d 9db4 183e fa48 a43d
00000120: 8a91 973b 65f9 9d3c 19db 643c 90dc 96bd
00000130: a6e7 78bc 3eb7 02bc af70 913d 8c1c c33d
00000140: f012 1b3d 3ea1 563d 91e6 0d3d 104d 4ebc
00000150: b369 5abb bd33 f8bb e6ee 2ebc bd7e 883d
00000160: cfcc 0a3e a820 063e 57eb 9f3c 2d34 103d
00000170: ba8c 67bc afc0 983d fa9a ba3d 9011 be3d
00000180: 823a 593d 9872 353d 3e52 6a3d 92ab 233d
00000190: 8178 7f3c 3972 c2bb 1292 853d e225 803d
000001a0: 0d18 153d 3d2a 40bc 8a77 a33c 291d cc3d
000001b0: dae4 ed3c e51b f93c 0422 2a3c 28b6 123c
000001c0: 2b8b c53d e62f a33d d5ad 3b3d 86d0 443d
000001d0: 4229 a0bc 5ce2 ba3c 736c 223d 5f38 f03d
000001e0: 9fb1 883c 7ee3 fe3c b89c 8e3d f491 d13b
000001f0: 0bf4 403d de1f 27bb 8676 4b3c fb99 893d
00000200: 1f85 cc3d 29dc d43d 562a dd3a c1e2 ea3c
00000210: 94c6 633c 80f2 093d 2b7b e3bc 7566 6ebd
00000220: 6ec7 bc3d b5db 893d 418d 673d 28f5 823d
00000230: 5e08 503d 07a3 d93c 0234 2b3d 5eae 913d
00000240: 85f8 593d b75c 683d d97c 18bd 9194 0c3d
00000250: 641e d53c 7980 a93c 266a 88bd c417 5fbd
00000260: cdbc c83c 3ff5 bb3d 75b8 0c3d 0d3e 5b3c
00000270: 7065 123d b8eb 353d 565a f4bb 8209 6a3d
00000280: 554d 003c 5e3e ff3d 7708 283d ea58 973d
00000290: f9c0 063e 512f fe3d b811 b93d 53ca 8d3d
000002a0: 3ed9 f1bb b463 0d3d 1152 013d 2c61 50bd
000002b0: 96bf 023c ee46 bc3d c844 8e3d b361 b8bd
000002c0: 087a bdbd 675f 83bb 7649 2b3d 3d57 24bc
000002d0: 0f91 90bb 1ff1 673d 7bcd f43d eaad d43b
000002e0: 2425 f4bc 12ed 893d 1e20 603d 7daf 793d
000002f0: 04b4 043e 4a6f be3b a37d c7bc ed86 8b3d
00000300: 350b 883d e3b3 843d 6149 80bb c531 983c
00000310: bd17 a23c 4b96 16bd b651 cb3d c789 1a3d
00000320: 9f9d 02bd ac79 aabc c22b 95bc 3685 43bc
00000330: 0dcc d8bb d551 68bc 5804 593d 0ffa 753d
00000340: 22ae 003c 153c 8d3d 3863 833d cd30 7f3d
00000350: 4b73 cd3d 91b5 2e3d 5097 9d3d 1843 c83c
00000360: 53fa d03d 6077 243e ebdb 8a3d 8647 163d
00000370: 0a9a 11bc 637c 613c b255 073d 9e86 df3b
00000380: 33d7 0a3d f742 a0bc 20f7 143d ebd6 76bd
00000390: 2a91 4a3c 2a84 553c eb18 c03c ba92 0ab9
000003a0: 25fa 2d3b 5098 803d 41ed fb3d 02d9 5f3d
000003b0: 1d40 693d 7017 e23c 379a 093d 3edb 9d3d
000003c0: 986e 033e f6d3 e93d 17e8 ce3d c607 9d3d
000003d0: 3c44 143d 31a6 9d3d b36e 70bd 94f9 83bc
000003e0: 8f70 a43d 6ff8 653d c7b0 e03d 2a1b 073d
000003f0: 5784 5f3d 4212 ca3c 8a53 043d aadf cc3c
-0.06882648 0.042403355 0.04494493 0.11778185 0.033139423 0.051673792 0.008990825 -0.007014824
-0.04308877 -0.03532604 0.00957196 0.06194869 -0.015894897 0.023926107 0.045959678 -0.040038247
-0.018228013 0.014924958 -0.00524899 0.04653112 0.05160082 0.062426887 0.055591114 0.10435292
0.011502847 -0.046707455 -0.04163179 0.083960496 0.07736661 0.013765151 0.08282486 0.040967155
0.06185041 0.03607031 0.060274214 -0.007280245 -0.008345661 0.039557148 0.0048746904 0.038068686
0.0676937 -0.066673435 -0.029502366 0.016277688 0.071498156 0.07133957 0.022534994 0.0845836
0.059830144 0.03792819 -0.049713932 -0.046784416 0.042851865 0.08129708 0.054605406 0.0016833381
0.023633119 0.052572317 -0.013288531 -0.058017768 0.01936967 0.03776918 -0.010825542 0.018268473
0.10303569 0.07374017 0.0054381634 -0.06450566 -0.023675917 0.10537826 0.14912648 0.08021732
0.004625504 0.01928396 0.013968253 -0.07366288 -0.015191948 -0.007978259 0.07101571 0.09526929
0.037859857 0.052399866 0.034643713 -0.012591615 -0.0033327162 -0.007574527 -0.010677075 0.066647984
0.13554691 0.13098395 0.019521398 0.03520601 -0.014132673 0.074586265 0.09111591 0.092806935
0.053034313 0.04429874 0.05720734 0.039958544 0.015592695 -0.0059340266 0.06522001 0.062572256
0.03639989 -0.01172882 0.019954462 0.09966499 0.029039789 0.030408809 0.0103840865 0.008954562
0.09645685 0.0796812 0.045820076 0.048050426 -0.019550923 0.022813015 0.039654206 0.11729502
0.016686259 0.031114336 0.069634855 0.006395573 0.047107738 -0.0025501172 0.012418395 0.067188226
0.09986328 0.10393555 0.0016873579 0.028672578 0.013902325 0.03367853 -0.027768692 -0.05820318
0.09217726 0.06731359 0.056531195 0.06394416 0.05078923 0.026566995 0.041797645 0.07113336
0.053215522 0.056729045 -0.03722844 0.03432137 0.026015468 0.020691143 -0.06660871 -0.054466024
0.02450409 0.09177636 0.0343556 0.013381493 0.03574127 0.044414252 -0.007457058 0.057137974
0.007830937 0.124630675 0.041023698 0.07390006 0.1315955 0.12411369 0.09036583 0.06923356
-0.0073806336 0.034518912 0.031572405 -0.05087392 0.007980248 0.09193216 0.06946713 -0.0900301
-0.09251791 -0.0040091756 0.041818105 -0.010030565 -0.0044118236 0.056626435 0.11953255 0.0064904587
-0.029802866 0.06734671 0.05471813 0.060958374 0.12959296 0.0058116065 -0.0243519 0.068128444
0.066427626 0.06479623 -0.0039149974 0.01857842 0.01978671 -0.036764424 0.099276945 0.03772905
-0.0318886 -0.02080997 -0.018209342 -0.011933615 -0.0066161216 -0.0141796665 0.05298266 0.060052928
0.0078540165 0.06896225 0.06415409 0.0623024 0.10031756 0.042653624 0.07694876 0.024446055
0.102039956 0.16061163 0.06780227 0.036689304 -0.008886823 0.013762566 0.03304071 0.0068214675
0.033896636 -0.019563181 0.03636849 -0.060263555 0.012363711 0.013031999 0.023449382 -0.00013215365
0.0026546803 0.06279051 0.12301112 0.054650314 0.05694591 0.027599066 0.033594336 0.07707833
0.12835157 0.114173815 0.101028614 0.07667498 0.036197886 0.07697714 -0.05869932 -0.016110219
0.08029281 0.056145128 0.109712176 0.03298489 0.05456957 0.02466691 0.03230623 0.025008995

linear_in.bias f4 [64]
00000000: 3504 88bc 0793 bf3c 7d3b 183d 39d2 e2bc
00000010: b61e 5c38 70eb f1bc a946 233d 0e22 06bc
00000020: d4ea c8bc ccfc a33c c6c2 bdbb 169e 013d
00000030: 4700 a9bc d908 8cbd 8ba6 223a 6315 cf3a
00000040: b166 e6bc 87a4 efbc d9b8 3b3d 73d8 34bd
00000050: e686 77bc 1340 1e3d 4030 f3b9 29cc 423d
00000060: 61ca 343d e125 9c3d 2da2 9ebc 38f2 ef3c
00000070: 5eb0 343d 3ef9 743c b55e 47bd 2565 073b
00000080: 7570 653d 0e1f d23b 7ff6 993c ad7b cc3c
00000090: 9e88 8e3d 9bad 8ebc aee4 18bd a864 0d3d
000000a0: 2853 713c 39cf 6e3c 7503 173d a525 303c
000000b0: 1769 3fbd 6f39 02bd 37de 3b3c 7537 8338
000000c0: 6cbc 593d 37a9 10bc ce10 0a3d b744 0fbd
000000d0: 5395 423d c55e 7d3c b8dc b33c d3fa 6e3c
000000e0: 8e79 1e3c f145 563c a7e6 dc3c 3827 b63c
000000f0: d581 ab3c 29d4 923d f970 f43b b6ec d3bc
-0.016603569 0.023385538 0.037166107 -0.027688133 5.248069e-05 -0.02953121 0.03986231 -0.00818683
-0.024526037 0.020018004 -0.005791041 0.031644903 -0.020630015 -0.06837625 0.00062046264 0.001579922
-0.028125139 -0.029253257 0.04583058 -0.044151735 -0.015107846 0.038635325 -0.0004638452 0.047557984
0.044138316 0.07624412 -0.01936444 0.029290304 0.04411351 0.014952002 -0.048674304 0.0020659652
0.05601545 0.0064123934 0.018794296 0.024961317 0.069596514 -0.017416766 -0.03732746 0.03451982
0.014729299 0.014575773 0.03686853 0.010751163 -0.04673108 -0.031793054 0.011466554 6.2568964e-05
0.05315821 -0.008829406 0.033707432 -0.03497764 0.047505688 0.015464489 0.021955833 0.014586168
0.009672536 0.013078199 0.026965452 0.022235498 0.020935932 0.071693726 0.0074597565 -0.025869709

action_head.weight f4 [36, 64]
00000000: 4d60 3ebd d7ff 633c b8ae e8bd 43f8 ef3d
00000010: 2fd4 073d 8e42 fa3d b360 163e 8148 0cbe
00000020: 976e 383d 0acd e13d 7bda 2b3e 7d99 87bc
00000030: 054a f53d 3e5c 2f3c adad 7ebc 37a6 763d
00000040: b27c 8abd 3fbf 413c 5cf3 56bc fb85 c03d
00000050: 2094 013e 3f8f 183e 53ad ea3d 2272 7c3d
00000060: 977b ee3d c8ef c63c fe2b 0f3e 96a9 383d
00000070: bc84 e83d fec7 a43d 185b 3cbd 493f bf37
00000080: 3440 1fbd 3491 b8bc 3124 0abd 942d d4bd
00000090: 48ef ecbc ca07 22be ae55 ad3d a9d0 c83d
000000a0: 4d02 6f3d 2db9 7cbd 12e6 cc3d 6272 d73d
000000b0: 5dea 223e 7354 0cbe d14f 70bd f5c8 87bc
000000c0: b522 c7bd bcfd e53d 6755 08be e8d5 023e
000000d0: f6c5 eb3d 2950 82bd 6fe4 c13d 158c 8ebd
000000e0: 783e ee3d 7b50 343e ef41 f0bd 8b7b 533c
000000f0: 290b 2fbd 7193 93bc 752c fabc 9ef5 3a3d
00000100: 74f4 8c3d 1e3a 8bbd 777e dfbd cb68 b0bd
00000110: 5c9e 173d fb3b 1e3e bbb7 b33c b341 28bd
00000120: 4d6b a23c 196c 12bc 57de 80bd a6c2 14bc
00000130: b6da 353c 5a7c 583b f5cc 103e 4165 363e
00000140: 3c7d e0bd d84b ce3c 762c a5bd 8942 893c
00000150: a679 97bd 9aa2 23be 4f5f 2abd 9517 053e
00000160: d288 adbb bc32 ce3d 825a d53c 28ce ecb9
00000170: 19c1 473d f494 ed3d bc33 de3d cc77 c73d
00000180: 78a0 b9ba 1c09 aabc f231 9d3d 2734 b93d
00000190: dd38 01be 025e 233e d1cc 593d e9f1 a9bd
000001a0: cffd 97bd 1f2a b43c 1765 2c3e ce66 9d3d
000001b0: 8ca0 86bc 5a84 9e3d f89c 2abd d0be 14bc
000001c0: 9399 3d3d 6228 d2bc 3843 e03d 8d16 ec3c
000001d0: 7efe 223e bac4 fb3c 7f1a 013e 8fac 713d
000001e0: 4455 1a3d e39a 91bd c510 cc3d 8251 293e
000001f0: d6e8 283e 6219 b93d a614 4c3e 19d7 b93d
00000200: 90b0 6a3d 6353 393e 05aa 7ebd 2293 543e
00000210: 4b2b bd3d ba12 df3d ee2c e03d c877 e53d
00000220: 5972 b83b 818f 5fbc c3ac c53d d16b 7ebd
00000230: 2493 603d f008 e93c 9682 c83d 73ca 4e3e
00000240: 9939 113e 976b 383e 84e7 cfbb 2916 1abd
00000250: 5d73 a73d 3ed6 a8bc 6974 30be 8b23 9abd
00000260: c2e9 a73c ccda 3cbc abb9 fd3c 8391 a43d
00000270: ada5 b4bd 18a6 12bd 9e94 193e 0c6a 81bd
00000280: 174b 7abd d775 fc3c 55fb 103e cb35 ab3c
00000290: 3983 8dbd e311 433d b05c d83d e460 09be
000002a0: ba61 e5bc f885 963d 4f1d ed3d 0b7b bb3d
000002b0: d758 203e f338 9a3d 09f6 5f3d fc2c 3cbd
000002c0: 64c3 edbc 006e 44be 089a 9abd 0ec7 ba3b
000002d0: 59ec b93c 911e 3f3e 2aca 2b3c 7c64 c4ba
000002e0: fa79 d0bd 9f86 70bd c32d f83c c9cd 2bbd
000002f0: 0715 17be 21e4 083e 4bb5 cf3c d570 bb3d
00000300: 53ea c33d 0fe5 93bd 55e0 a63c dfb4 473c
00000310: e9e6 6abd ca62 5d3e b863 6e3d ef45 22bc
00000320: 2443 02be b56d e1bc 0f45 ff3d c21d ae3d
00000330: 723e 1bbe de99 023e c5a1 783c db51 15bd
00000340: 1dbf 9b3d becb de3d 5092 1c3e 8bc3 143d
00000350: c718 6f3d 5386 ed3d 9d98 f0bd 103b ba3d
00000360: 5395 3f3d 430e 323e 3b94 bf3d ff12 c73d
00000370: b593 5fbd 686f 8a3d 2c9c 213d 7bfd 503c
00000380: d146 193d b2f6 0a3b 1b94 183e 35d9 043d
00000390: f0f4 db3b b490 f63d 2cf5 50bc 7c31 2ebd
000003a0: 3d67 243e 9702 403e 7b27 963d 8bd1 b23c
000003b0: e5d1 e5bd a74d e23c 03f3 883d ffa8 0fbe
000003c0: 2430 a53d 17ee 093c 2e12 2d3e 1271 0fbe
000003d0: 6b6d 84bc 8b93 cdbd 3754 393e 3b6b 483d
000003e0: 57bb 663c c618 103e ac00 63bd 43f5 173e
000003f0: 8c63 a4bc 6f78 9f3d 9e82 423d 8565 2bbd
-0.04647856 0.013915977 -0.1136145 0.11717274 0.03316134 0.122197255 0.14685325 -0.13699533
0.04502734 0.11025436 0.16782562 -0.016552681 0.11977009 0.010703145 -0.015544337 0.06021711
-0.06762065 0.011825382 -0.013119545 0.09400555 0.12654161 0.14898394 0.1145884 0.061632283
0.11644667 0.024284258 0.13981625 0.045083605 0.11353442 0.08045958 -0.04598531 2.2798444e-05
-0.03887959 -0.022530176 -0.03372592 -0.10360256 -0.028922692 -0.15823284 0.08463608 0.09805424
0.058351804 -0.061700035 0.1000482 0.10519864 0.15909715 -0.1370409 -0.05866987 -0.016575316
-0.09723417 0.112300366 -0.13313828 0.12776911 0.115123674 -0.063629456 0.094673984 -0.06960312
0.11633009 0.17608826 -0.11731326 0.012907873 -0.042735253 -0.018014641 -0.030538777 0.045644395
0.06882563 -0.06798194 -0.10912793 -0.08613738 0.037016258 0.15452568 0.021938195 -0.04107828
0.019826556 -0.008936905 -0.06292408 -0.009079611 0.011099508 0.0033033104 0.14140685 0.17812063
-0.109613866 0.02518265 -0.08065121 0.01675536 -0.073962495 -0.15979996 -0.0415948 0.12997277
-0.0052958513 0.100682706 0.026044134 -0.00045167026 0.048768137 0.11600676 0.10849711 0.09739646
-0.0014162203 -0.020756297 0.07675542 0.090431504 -0.12619348 0.1595383 0.053173844 -0.08298094
-0.07421457 0.021992741 0.16835438 0.07685624 -0.016433977 0.07740088 -0.041653603 -0.009078696
0.046289038 -0.025654022 0.10950321 0.028819347 0.15917394 0.030733455 0.12607764 0.059002455
0.037678972 -0.071096204 0.09964136 0.16534999 0.1649507 0.090380445 0.19929752 0.0907423
0.05729729 0.18098216 -0.062173862 0.20759252 0.09236773 0.10892244 0.1094607 0.11204487
0.0056288657 -0.013645054 0.09652092 -0.06211454 0.054827824 0.028446645 0.09790532 0.20194416
0.14182128 0.18009792 -0.0063447375 -0.03761879 0.08176301 -0.020609971 -0.17231907 -0.075263105
0.020497207 -0.011526775 0.030972322 0.08035567 -0.08820663 -0.03580293 0.14998099 -0.06319055
-0.061106768 0.03081791 0.14158376 0.020899674 -0.06909794 0.04762448 0.10564554 -0.13415867
-0.028000701 0.07349771 0.11577856 0.09154328 0.1565889 0.075303935 0.054677997 -0.045941338
-0.029023834 -0.19182587 -0.075489104 0.0056999987 0.022695707 0.18664004 0.010485211 -0.001498356
-0.10179515 -0.058722135 0.030295258 -0.0419443 -0.14754115 0.13368274 0.025355002 0.091523804
0.09566178 -0.07221424 0.020370642 0.012189119 -0.05734912 0.21619716 0.058200568 -0.009904369
-0.12720925 -0.027518133 0.12464344 0.085017696 -0.1516054 0.12754008 0.015175288 -0.036455017
0.07604811 0.108787045 0.15290189 0.036319297 0.05837324 0.11597886 -0.11747859 0.090932965
0.046773266 0.17388253 0.093544446 0.0972042 -0.054584224 0.0675953 0.039455578 0.012755747
0.03742105 0.002120417 0.14900248 0.032433707 0.0067125484 0.12039319 -0.012753766 -0.04252766
0.16055007 0.18750988 0.07331749 0.021828433 -0.11221675 0.027624918 0.06686976 -0.1402931
0.08065823 0.008418581 0.16901466 -0.14007977 -0.016165456 -0.10037907 0.18098532 0.048930388
0.014082751 0.1407195 -0.055420563 0.14839654 -0.020066999 0.07786643 0.047487848 -0.041844863

action_head.bias f4 [36]
00000000: 6639 d43c a2a7 a93d 7422 07bc 481d 7cbd
00000010: c55b d1bd 1494 ce3c fa47 a03d 5259 b73d
00000020: 4895 0a3e 1a51 28bd 5388 bc3d 7790 c73d
00000030: 2577 78bd 86fa 533d bf66 a7bd b453 573d
00000040: 7c4e 1a3e 5cdb debc d2c1 143e 3ac3 073e
00000050: 509a 03bd f565 143e 577e d53d fc23 5dbd
00000060: 7bb2 1d3d 90ff aa3b 1058 f6bc 5633 713d
00000070: c4ae 2a3e 7ac9 fd3d 1e66 d0bc 5c08 053e
00000080: 9de3 3d3d 528e 65bd 4f39 06bc b985 de3d
0.025906276 0.082839265 -0.00824796 -0.061551362 -0.10222582 0.025217094 0.078262284 0.089525834
0.13533509 -0.04109297 0.09205689 0.09744351 -0.0606605 0.05175259 -0.08173894 0.05257006
0.15069002 -0.027204208 0.14527062 0.13258067 -0.032129586 0.14492019 0.10424488 -0.053989395
0.03850029 0.0052184537 -0.030071288 0.05888685 0.1666823 0.12391944 -0.025439318 0.1299147
0.046359647 -0.05604393 -0.008192374 0.10865349
